…
I0718 03:10:30.621299 24722 net.cpp:287] The NetState phase (0) differed from the phase (1) specified by a rule in layer cifar
I0718 03:10:30.621433 24722 net.cpp:42] Initializing net from parameters: 
name: "CIFAR10_full"
state {
  phase: TRAIN
}
layer {
  name: "cifar"
  type: "Data"
  top: "data"
  top: "label"
  include {
    phase: TRAIN
  }
  transform_param {
    mirror: true
    crop_size: 60
    mean_file: "examples/cifar10/snsd_mean.binaryproto"
  }
  data_param {
    source: "examples/cifar10/snsd_cifar10_train_leveldb"
    batch_size: 100
    backend: LEVELDB
  }
}
layer {
  name: "conv1"
  type: "Convolution"
  bottom: "data"
  top: "conv1"
  param {
    lr_mult: 1
  }
  param {
    lr_mult: 2
  }
  convolution_param {
    num_output: 60
    pad: 2
    kernel_size: 5
    stride: 1
    weight_filler {
      type: "gaussian"
      std: 0.0001
    }
    bias_filler {
      type: "constant"
    }
  }
}
layer {
  name: "pool1"
  type: "Pooling"
  bottom: "conv1"
  top: "pool1"
  pooling_param {
    pool: MAX
    kernel_size: 3
    stride: 2
  }
}
layer {
  name: "relu1"
  type: "ReLU"
  bottom: "pool1"
  top: "pool1"
}
layer {
  name: "norm1"
  type: "LRN"
  bottom: "pool1"
  top: "norm1"
  lrn_param {
    local_size: 3
    alpha: 5e-05
    beta: 0.75
    norm_region: WITHIN_CHANNEL
  }
}
layer {
  name: "conv2"
  type: "Convolution"
  bottom: "norm1"
  top: "conv2"
  param {
    lr_mult: 1
  }
  param {
    lr_mult: 2
  }
  convolution_param {
    num_output: 32
    pad: 2
    kernel_size: 5
    stride: 1
    weight_filler {
      type: "gaussian"
      std: 0.01
    }
    bias_filler {
      type: "constant"
    }
  }
}
layer {
  name: "relu2"
  type: "ReLU"
  bottom: "conv2"
  top: "conv2"
}
layer {
  name: "pool2"
  type: "Pooling"
  bottom: "conv2"
  top: "pool2"
  pooling_param {
    pool: AVE
    kernel_size: 3
    stride: 2
  }
}
layer {
  name: "norm2"
  type: "LRN"
  bottom: "pool2"
  top: "norm2"
  lrn_param {
    local_size: 3
    alpha: 5e-05
    beta: 0.75
    norm_region: WITHIN_CHANNEL
  }
}
layer {
  name: "conv3"
  type: "Convolution"
  bottom: "norm2"
  top: "conv3"
  convolution_param {
    num_output: 64
    pad: 2
    kernel_size: 5
    stride: 1
    weight_filler {
      type: "gaussian"
      std: 0.01
    }
    bias_filler {
      type: "constant"
    }
  }
}
layer {
  name: "relu3"
  type: "ReLU"
  bottom: "conv3"
  top: "conv3"
}
layer {
  name: "pool3"
  type: "Pooling"
  bottom: "conv3"
  top: "pool3"
  pooling_param {
    pool: AVE
    kernel_size: 3
    stride: 2
  }
}
layer {
  name: "ip1"
  type: "InnerProduct"
  bottom: "pool3"
  top: "ip1"
  param {
    lr_mult: 1
  }
  param {
    lr_mult: 2
  }
  inner_product_param {
    num_output: 64
    weight_filler {
      type: "gaussian"
      std: 0.1
    }
    bias_filler {
      type: "constant"
    }
  }
}
layer {
  name: "drop1"
  type: "Dropout"
  bottom: "ip1"
  top: "drop1"
  dropout_param {
    dropout_ratio: 0.5
  }
}
layer {
  name: "ip2"
  type: "InnerProduct"
  bottom: "drop1"
  top: "ip2"
  param {
    lr_mult: 1
    decay_mult: 250
  }
  param {
    lr_mult: 2
    decay_mult: 0
  }
  inner_product_param {
    num_output: 10
    weight_filler {
      type: "gaussian"
      std: 0.01
    }
    bias_filler {
      type: "constant"
    }
  }
}
layer {
  name: "accuracy"
  type: "Accuracy"
  bottom: "ip2"
  bottom: "label"
  top: "accuracy"
}
layer {
  name: "loss"
  type: "SoftmaxWithLoss"
  bottom: "ip2"
  bottom: "label"
  top: "loss"
}
I0718 03:10:30.622103 24722 layer_factory.hpp:74] Creating layer cifar
I0718 03:10:30.622149 24722 net.cpp:90] Creating Layer cifar
I0718 03:10:30.622164 24722 net.cpp:368] cifar -> data
I0718 03:10:30.622190 24722 net.cpp:368] cifar -> label
I0718 03:10:30.622205 24722 net.cpp:120] Setting up cifar
I0718 03:10:30.622217 24722 data_transformer.cpp:22] Loading mean file from: examples/cifar10/snsd_mean.binaryproto
I0718 03:10:30.632446 24722 db_leveldb.cpp:17] Opened leveldb examples/cifar10/snsd_cifar10_train_leveldb
I0718 03:10:30.633345 24722 data_layer.cpp:52] output data size: 100,3,60,60
I0718 03:10:30.634276 24722 net.cpp:127] Top shape: 100 3 60 60 (1080000)
I0718 03:10:30.634312 24722 net.cpp:127] Top shape: 100 (100)
I0718 03:10:30.634326 24722 layer_factory.hpp:74] Creating layer label_cifar_1_split
I0718 03:10:30.634344 24722 net.cpp:90] Creating Layer label_cifar_1_split
I0718 03:10:30.634356 24722 net.cpp:410] label_cifar_1_split <- label
I0718 03:10:30.634372 24722 net.cpp:368] label_cifar_1_split -> label_cifar_1_split_0
I0718 03:10:30.634389 24722 net.cpp:368] label_cifar_1_split -> label_cifar_1_split_1
I0718 03:10:30.634400 24722 net.cpp:120] Setting up label_cifar_1_split
I0718 03:10:30.634415 24722 net.cpp:127] Top shape: 100 (100)
I0718 03:10:30.634424 24722 net.cpp:127] Top shape: 100 (100)
I0718 03:10:30.634433 24722 layer_factory.hpp:74] Creating layer conv1
I0718 03:10:30.634451 24722 net.cpp:90] Creating Layer conv1
I0718 03:10:30.634460 24722 net.cpp:410] conv1 <- data
I0718 03:10:30.634471 24722 net.cpp:368] conv1 -> conv1
I0718 03:10:30.634486 24722 net.cpp:120] Setting up conv1
I0718 03:10:30.679054 24722 net.cpp:127] Top shape: 100 60 60 60 (21600000)
I0718 03:10:30.679102 24722 layer_factory.hpp:74] Creating layer pool1
I0718 03:10:30.679124 24722 net.cpp:90] Creating Layer pool1
I0718 03:10:30.679136 24722 net.cpp:410] pool1 <- conv1
I0718 03:10:30.679147 24722 net.cpp:368] pool1 -> pool1
I0718 03:10:30.679162 24722 net.cpp:120] Setting up pool1
I0718 03:10:30.679325 24722 net.cpp:127] Top shape: 100 60 30 30 (5400000)
I0718 03:10:30.679339 24722 layer_factory.hpp:74] Creating layer relu1
I0718 03:10:30.679360 24722 net.cpp:90] Creating Layer relu1
I0718 03:10:30.679368 24722 net.cpp:410] relu1 <- pool1
I0718 03:10:30.679378 24722 net.cpp:357] relu1 -> pool1 (in-place)
I0718 03:10:30.679388 24722 net.cpp:120] Setting up relu1
I0718 03:10:30.679450 24722 net.cpp:127] Top shape: 100 60 30 30 (5400000)
I0718 03:10:30.679461 24722 layer_factory.hpp:74] Creating layer norm1
I0718 03:10:30.679481 24722 net.cpp:90] Creating Layer norm1
I0718 03:10:30.679489 24722 net.cpp:410] norm1 <- pool1
I0718 03:10:30.679499 24722 net.cpp:368] norm1 -> norm1
I0718 03:10:30.679510 24722 net.cpp:120] Setting up norm1
I0718 03:10:30.679538 24722 net.cpp:127] Top shape: 100 60 30 30 (5400000)
I0718 03:10:30.679548 24722 layer_factory.hpp:74] Creating layer conv2
I0718 03:10:30.679561 24722 net.cpp:90] Creating Layer conv2
I0718 03:10:30.679570 24722 net.cpp:410] conv2 <- norm1
I0718 03:10:30.679580 24722 net.cpp:368] conv2 -> conv2
I0718 03:10:30.679592 24722 net.cpp:120] Setting up conv2
I0718 03:10:30.681144 24722 net.cpp:127] Top shape: 100 32 30 30 (2880000)
I0718 03:10:30.681164 24722 layer_factory.hpp:74] Creating layer relu2
I0718 03:10:30.681174 24722 net.cpp:90] Creating Layer relu2
I0718 03:10:30.681184 24722 net.cpp:410] relu2 <- conv2
I0718 03:10:30.681192 24722 net.cpp:357] relu2 -> conv2 (in-place)
I0718 03:10:30.681202 24722 net.cpp:120] Setting up relu2
I0718 03:10:30.681257 24722 net.cpp:127] Top shape: 100 32 30 30 (2880000)
I0718 03:10:30.681267 24722 layer_factory.hpp:74] Creating layer pool2
I0718 03:10:30.681285 24722 net.cpp:90] Creating Layer pool2
I0718 03:10:30.681293 24722 net.cpp:410] pool2 <- conv2
I0718 03:10:30.681303 24722 net.cpp:368] pool2 -> pool2
I0718 03:10:30.681313 24722 net.cpp:120] Setting up pool2
I0718 03:10:30.681370 24722 net.cpp:127] Top shape: 100 32 15 15 (720000)
I0718 03:10:30.681380 24722 layer_factory.hpp:74] Creating layer norm2
I0718 03:10:30.681397 24722 net.cpp:90] Creating Layer norm2
I0718 03:10:30.681430 24722 net.cpp:410] norm2 <- pool2
I0718 03:10:30.681442 24722 net.cpp:368] norm2 -> norm2
I0718 03:10:30.681452 24722 net.cpp:120] Setting up norm2
I0718 03:10:30.681470 24722 net.cpp:127] Top shape: 100 32 15 15 (720000)
I0718 03:10:30.681480 24722 layer_factory.hpp:74] Creating layer conv3
I0718 03:10:30.681490 24722 net.cpp:90] Creating Layer conv3
I0718 03:10:30.681499 24722 net.cpp:410] conv3 <- norm2
I0718 03:10:30.681509 24722 net.cpp:368] conv3 -> conv3
I0718 03:10:30.681520 24722 net.cpp:120] Setting up conv3
I0718 03:10:30.683079 24722 net.cpp:127] Top shape: 100 64 15 15 (1440000)
I0718 03:10:30.683097 24722 layer_factory.hpp:74] Creating layer relu3
I0718 03:10:30.683115 24722 net.cpp:90] Creating Layer relu3
I0718 03:10:30.683123 24722 net.cpp:410] relu3 <- conv3
I0718 03:10:30.683133 24722 net.cpp:357] relu3 -> conv3 (in-place)
I0718 03:10:30.683142 24722 net.cpp:120] Setting up relu3
I0718 03:10:30.683292 24722 net.cpp:127] Top shape: 100 64 15 15 (1440000)
I0718 03:10:30.683305 24722 layer_factory.hpp:74] Creating layer pool3
I0718 03:10:30.683322 24722 net.cpp:90] Creating Layer pool3
I0718 03:10:30.683331 24722 net.cpp:410] pool3 <- conv3
I0718 03:10:30.683341 24722 net.cpp:368] pool3 -> pool3
I0718 03:10:30.683351 24722 net.cpp:120] Setting up pool3
I0718 03:10:30.683409 24722 net.cpp:127] Top shape: 100 64 7 7 (313600)
I0718 03:10:30.683426 24722 layer_factory.hpp:74] Creating layer ip1
I0718 03:10:30.683445 24722 net.cpp:90] Creating Layer ip1
I0718 03:10:30.683454 24722 net.cpp:410] ip1 <- pool3
I0718 03:10:30.683465 24722 net.cpp:368] ip1 -> ip1
I0718 03:10:30.683485 24722 net.cpp:120] Setting up ip1
I0718 03:10:30.689097 24722 net.cpp:127] Top shape: 100 64 (6400)
I0718 03:10:30.689126 24722 layer_factory.hpp:74] Creating layer drop1
I0718 03:10:30.689141 24722 net.cpp:90] Creating Layer drop1
I0718 03:10:30.689149 24722 net.cpp:410] drop1 <- ip1
I0718 03:10:30.689160 24722 net.cpp:368] drop1 -> drop1
I0718 03:10:30.689173 24722 net.cpp:120] Setting up drop1
I0718 03:10:30.689195 24722 net.cpp:127] Top shape: 100 64 (6400)
I0718 03:10:30.689211 24722 layer_factory.hpp:74] Creating layer ip2
I0718 03:10:30.689221 24722 net.cpp:90] Creating Layer ip2
I0718 03:10:30.689230 24722 net.cpp:410] ip2 <- drop1
I0718 03:10:30.689240 24722 net.cpp:368] ip2 -> ip2
I0718 03:10:30.689257 24722 net.cpp:120] Setting up ip2
I0718 03:10:30.689296 24722 net.cpp:127] Top shape: 100 10 (1000)
I0718 03:10:30.689307 24722 layer_factory.hpp:74] Creating layer ip2_ip2_0_split
I0718 03:10:30.689318 24722 net.cpp:90] Creating Layer ip2_ip2_0_split
I0718 03:10:30.689327 24722 net.cpp:410] ip2_ip2_0_split <- ip2
I0718 03:10:30.689337 24722 net.cpp:368] ip2_ip2_0_split -> ip2_ip2_0_split_0
I0718 03:10:30.689347 24722 net.cpp:368] ip2_ip2_0_split -> ip2_ip2_0_split_1
I0718 03:10:30.689358 24722 net.cpp:120] Setting up ip2_ip2_0_split
I0718 03:10:30.689368 24722 net.cpp:127] Top shape: 100 10 (1000)
I0718 03:10:30.689378 24722 net.cpp:127] Top shape: 100 10 (1000)
I0718 03:10:30.689385 24722 layer_factory.hpp:74] Creating layer accuracy
I0718 03:10:30.689398 24722 net.cpp:90] Creating Layer accuracy
I0718 03:10:30.689405 24722 net.cpp:410] accuracy <- ip2_ip2_0_split_0
I0718 03:10:30.689414 24722 net.cpp:410] accuracy <- label_cifar_1_split_0
I0718 03:10:30.689424 24722 net.cpp:368] accuracy -> accuracy
I0718 03:10:30.689434 24722 net.cpp:120] Setting up accuracy
…
