…
I0718 16:41:07.942688   744 solver.cpp:70] Creating training net from net file: examples/cifar10/snsd_cifar10_full_train_test.prototxt
I0718 16:41:07.943064   744 net.cpp:287] The NetState phase (0) differed from the phase (1) specified by a rule in layer cifar
I0718 16:41:07.943193   744 net.cpp:42] Initializing net from parameters: 
name: "CIFAR10_full"
state {
  phase: TRAIN
}
layer {
  name: "cifar"
  type: "Data"
  top: "data"
  top: "label"
  include {
    phase: TRAIN
  }
  transform_param {
    mean_file: "examples/cifar10/snsd_mean.binaryproto"
  }
  data_param {
    source: "examples/cifar10/snsd_cifar10_train_leveldb"
    batch_size: 100
    backend: LEVELDB
  }
}
layer {
  name: "conv1"
  type: "Convolution"
  bottom: "data"
  top: "conv1"
  param {
    lr_mult: 1
  }
  param {
    lr_mult: 2
  }
  convolution_param {
    num_output: 64
    pad: 2
    kernel_size: 5
    stride: 1
    weight_filler {
      type: "gaussian"
      std: 0.0001
    }
    bias_filler {
      type: "constant"
    }
  }
}
layer {
  name: "pool1"
  type: "Pooling"
  bottom: "conv1"
  top: "pool1"
  pooling_param {
    pool: MAX
    kernel_size: 3
    stride: 2
  }
}
layer {
  name: "relu1"
  type: "ReLU"
  bottom: "pool1"
  top: "pool1"
}
layer {
  name: "norm1"
  type: "LRN"
  bottom: "pool1"
  top: "norm1"
  lrn_param {
    local_size: 3
    alpha: 5e-05
    beta: 0.75
    norm_region: WITHIN_CHANNEL
  }
}
layer {
  name: "conv2"
  type: "Convolution"
  bottom: "norm1"
  top: "conv2"
  param {
    lr_mult: 1
  }
  param {
    lr_mult: 2
  }
  convolution_param {
    num_output: 32
    pad: 2
    kernel_size: 5
    stride: 1
    weight_filler {
      type: "gaussian"
      std: 0.01
    }
    bias_filler {
      type: "constant"
    }
  }
}
layer {
  name: "relu2"
  type: "ReLU"
  bottom: "conv2"
  top: "conv2"
}
layer {
  name: "pool2"
  type: "Pooling"
  bottom: "conv2"
  top: "pool2"
  pooling_param {
    pool: AVE
    kernel_size: 3
    stride: 2
  }
}
layer {
  name: "norm2"
  type: "LRN"
  bottom: "pool2"
  top: "norm2"
  lrn_param {
    local_size: 3
    alpha: 5e-05
    beta: 0.75
    norm_region: WITHIN_CHANNEL
  }
}
layer {
  name: "conv3"
  type: "Convolution"
  bottom: "norm2"
  top: "conv3"
  convolution_param {
    num_output: 64
    pad: 2
    kernel_size: 5
    stride: 1
    weight_filler {
      type: "gaussian"
      std: 0.01
    }
    bias_filler {
      type: "constant"
    }
  }
}
layer {
  name: "relu3"
  type: "ReLU"
  bottom: "conv3"
  top: "conv3"
}
layer {
  name: "pool3"
  type: "Pooling"
  bottom: "conv3"
  top: "pool3"
  pooling_param {
    pool: AVE
    kernel_size: 3
    stride: 2
  }
}
layer {
  name: "ip1"
  type: "InnerProduct"
  bottom: "pool3"
  top: "ip1"
  param {
    lr_mult: 1
  }
  param {
    lr_mult: 2
  }
  inner_product_param {
    num_output: 64
    weight_filler {
      type: "gaussian"
      std: 0.1
    }
    bias_filler {
      type: "constant"
    }
  }
}
layer {
  name: "ip2"
  type: "InnerProduct"
  bottom: "ip1"
  top: "ip2"
  param {
    lr_mult: 1
    decay_mult: 250
  }
  param {
    lr_mult: 2
    decay_mult: 0
  }
  inner_product_param {
    num_output: 10
    weight_filler {
      type: "gaussian"
      std: 0.01
    }
    bias_filler {
      type: "constant"
    }
  }
}
layer {
  name: "accuracy"
  type: "Accuracy"
  bottom: "ip2"
  bottom: "label"
  top: "accuracy"
}
layer {
  name: "loss"
  type: "SoftmaxWithLoss"
  bottom: "ip2"
  bottom: "label"
  top: "loss"
}
I0718 16:41:07.943799   744 layer_factory.hpp:74] Creating layer cifar
I0718 16:41:07.943821   744 net.cpp:90] Creating Layer cifar
I0718 16:41:07.943835   744 net.cpp:368] cifar -> data
I0718 16:41:07.943889   744 net.cpp:368] cifar -> label
I0718 16:41:07.943907   744 net.cpp:120] Setting up cifar
I0718 16:41:07.943918   744 data_transformer.cpp:22] Loading mean file from: examples/cifar10/snsd_mean.binaryproto
I0718 16:41:07.951683   744 db_leveldb.cpp:17] Opened leveldb examples/cifar10/snsd_cifar10_train_leveldb
I0718 16:41:07.951899   744 data_layer.cpp:52] output data size: 100,3,64,64
I0718 16:41:07.953243   744 net.cpp:127] Top shape: 100 3 64 64 (1228800)
I0718 16:41:07.953277   744 net.cpp:127] Top shape: 100 (100)
I0718 16:41:07.953294   744 layer_factory.hpp:74] Creating layer label_cifar_1_split
I0718 16:41:07.953342   744 net.cpp:90] Creating Layer label_cifar_1_split
I0718 16:41:07.953388   744 net.cpp:410] label_cifar_1_split <- label
I0718 16:41:07.953420   744 net.cpp:368] label_cifar_1_split -> label_cifar_1_split_0
I0718 16:41:07.953451   744 net.cpp:368] label_cifar_1_split -> label_cifar_1_split_1
I0718 16:41:07.953475   744 net.cpp:120] Setting up label_cifar_1_split
I0718 16:41:07.953539   744 net.cpp:127] Top shape: 100 (100)
I0718 16:41:07.953558   744 net.cpp:127] Top shape: 100 (100)
I0718 16:41:07.953569   744 layer_factory.hpp:74] Creating layer conv1
I0718 16:41:07.953598   744 net.cpp:90] Creating Layer conv1
I0718 16:41:07.953609   744 net.cpp:410] conv1 <- data
I0718 16:41:07.953625   744 net.cpp:368] conv1 -> conv1
I0718 16:41:07.953649   744 net.cpp:120] Setting up conv1
I0718 16:41:08.003294   744 net.cpp:127] Top shape: 100 64 64 64 (26214400)
I0718 16:41:08.003347   744 layer_factory.hpp:74] Creating layer pool1
I0718 16:41:08.003366   744 net.cpp:90] Creating Layer pool1
I0718 16:41:08.003376   744 net.cpp:410] pool1 <- conv1
I0718 16:41:08.003388   744 net.cpp:368] pool1 -> pool1
I0718 16:41:08.003402   744 net.cpp:120] Setting up pool1
I0718 16:41:08.003573   744 net.cpp:127] Top shape: 100 64 32 32 (6553600)
I0718 16:41:08.003587   744 layer_factory.hpp:74] Creating layer relu1
I0718 16:41:08.003608   744 net.cpp:90] Creating Layer relu1
I0718 16:41:08.003617   744 net.cpp:410] relu1 <- pool1
I0718 16:41:08.003626   744 net.cpp:357] relu1 -> pool1 (in-place)
I0718 16:41:08.003635   744 net.cpp:120] Setting up relu1
I0718 16:41:08.003702   744 net.cpp:127] Top shape: 100 64 32 32 (6553600)
I0718 16:41:08.003712   744 layer_factory.hpp:74] Creating layer norm1
I0718 16:41:08.003732   744 net.cpp:90] Creating Layer norm1
I0718 16:41:08.003741   744 net.cpp:410] norm1 <- pool1
I0718 16:41:08.003751   744 net.cpp:368] norm1 -> norm1
I0718 16:41:08.003763   744 net.cpp:120] Setting up norm1
I0718 16:41:08.003792   744 net.cpp:127] Top shape: 100 64 32 32 (6553600)
I0718 16:41:08.003808   744 layer_factory.hpp:74] Creating layer conv2
I0718 16:41:08.003829   744 net.cpp:90] Creating Layer conv2
I0718 16:41:08.003836   744 net.cpp:410] conv2 <- norm1
I0718 16:41:08.003846   744 net.cpp:368] conv2 -> conv2
I0718 16:41:08.003857   744 net.cpp:120] Setting up conv2
I0718 16:41:08.005499   744 net.cpp:127] Top shape: 100 32 32 32 (3276800)
I0718 16:41:08.005518   744 layer_factory.hpp:74] Creating layer relu2
I0718 16:41:08.005528   744 net.cpp:90] Creating Layer relu2
I0718 16:41:08.005537   744 net.cpp:410] relu2 <- conv2
I0718 16:41:08.005547   744 net.cpp:357] relu2 -> conv2 (in-place)
I0718 16:41:08.005556   744 net.cpp:120] Setting up relu2
I0718 16:41:08.005609   744 net.cpp:127] Top shape: 100 32 32 32 (3276800)
I0718 16:41:08.005620   744 layer_factory.hpp:74] Creating layer pool2
I0718 16:41:08.005631   744 net.cpp:90] Creating Layer pool2
I0718 16:41:08.005640   744 net.cpp:410] pool2 <- conv2
I0718 16:41:08.005650   744 net.cpp:368] pool2 -> pool2
I0718 16:41:08.005659   744 net.cpp:120] Setting up pool2
I0718 16:41:08.005710   744 net.cpp:127] Top shape: 100 32 16 16 (819200)
I0718 16:41:08.005722   744 layer_factory.hpp:74] Creating layer norm2
I0718 16:41:08.005731   744 net.cpp:90] Creating Layer norm2
I0718 16:41:08.005739   744 net.cpp:410] norm2 <- pool2
I0718 16:41:08.005748   744 net.cpp:368] norm2 -> norm2
I0718 16:41:08.005759   744 net.cpp:120] Setting up norm2
I0718 16:41:08.005805   744 net.cpp:127] Top shape: 100 32 16 16 (819200)
I0718 16:41:08.005822   744 layer_factory.hpp:74] Creating layer conv3
I0718 16:41:08.005833   744 net.cpp:90] Creating Layer conv3
I0718 16:41:08.005841   744 net.cpp:410] conv3 <- norm2
I0718 16:41:08.005851   744 net.cpp:368] conv3 -> conv3
I0718 16:41:08.005872   744 net.cpp:120] Setting up conv3
I0718 16:41:08.007469   744 net.cpp:127] Top shape: 100 64 16 16 (1638400)
I0718 16:41:08.007488   744 layer_factory.hpp:74] Creating layer relu3
I0718 16:41:08.007499   744 net.cpp:90] Creating Layer relu3
I0718 16:41:08.007508   744 net.cpp:410] relu3 <- conv3
I0718 16:41:08.007518   744 net.cpp:357] relu3 -> conv3 (in-place)
I0718 16:41:08.007526   744 net.cpp:120] Setting up relu3
I0718 16:41:08.007671   744 net.cpp:127] Top shape: 100 64 16 16 (1638400)
I0718 16:41:08.007685   744 layer_factory.hpp:74] Creating layer pool3
I0718 16:41:08.007695   744 net.cpp:90] Creating Layer pool3
I0718 16:41:08.007704   744 net.cpp:410] pool3 <- conv3
I0718 16:41:08.007714   744 net.cpp:368] pool3 -> pool3
I0718 16:41:08.007724   744 net.cpp:120] Setting up pool3
I0718 16:41:08.007776   744 net.cpp:127] Top shape: 100 64 8 8 (409600)
I0718 16:41:08.007787   744 layer_factory.hpp:74] Creating layer ip1
I0718 16:41:08.007799   744 net.cpp:90] Creating Layer ip1
I0718 16:41:08.007807   744 net.cpp:410] ip1 <- pool3
I0718 16:41:08.007817   744 net.cpp:368] ip1 -> ip1
I0718 16:41:08.007829   744 net.cpp:120] Setting up ip1
I0718 16:41:08.014889   744 net.cpp:127] Top shape: 100 64 (6400)
I0718 16:41:08.014910   744 layer_factory.hpp:74] Creating layer ip2
I0718 16:41:08.014922   744 net.cpp:90] Creating Layer ip2
I0718 16:41:08.014940   744 net.cpp:410] ip2 <- ip1
I0718 16:41:08.014957   744 net.cpp:368] ip2 -> ip2
I0718 16:41:08.014971   744 net.cpp:120] Setting up ip2
I0718 16:41:08.015012   744 net.cpp:127] Top shape: 100 10 (1000)
I0718 16:41:08.015024   744 layer_factory.hpp:74] Creating layer ip2_ip2_0_split
I0718 16:41:08.015043   744 net.cpp:90] Creating Layer ip2_ip2_0_split
I0718 16:41:08.015051   744 net.cpp:410] ip2_ip2_0_split <- ip2
I0718 16:41:08.015061   744 net.cpp:368] ip2_ip2_0_split -> ip2_ip2_0_split_0
I0718 16:41:08.015074   744 net.cpp:368] ip2_ip2_0_split -> ip2_ip2_0_split_1
I0718 16:41:08.015084   744 net.cpp:120] Setting up ip2_ip2_0_split
I0718 16:41:08.015095   744 net.cpp:127] Top shape: 100 10 (1000)
I0718 16:41:08.015105   744 net.cpp:127] Top shape: 100 10 (1000)
I0718 16:41:08.015117   744 layer_factory.hpp:74] Creating layer accuracy
I0718 16:41:08.015132   744 net.cpp:90] Creating Layer accuracy
I0718 16:41:08.015142   744 net.cpp:410] accuracy <- ip2_ip2_0_split_0
I0718 16:41:08.015152   744 net.cpp:410] accuracy <- label_cifar_1_split_0
I0718 16:41:08.015161   744 net.cpp:368] accuracy -> accuracy
I0718 16:41:08.015173   744 net.cpp:120] Setting up accuracy
…
